…
[5 rows x 304 columns]
2022-03-13 02:39:23,462 __main__ 108 [INFO][<module>] build model
2022-03-13 02:39:23,750 __main__ 110 [INFO][<module>] model summery:
Model: "model"
________________________________________________________________________________
 Layer (type)             Output Shape      Param #  Connected to               
================================================================================
 input_1 (InputLayer)     [(None, 1)]       0        []                         
                                                                                
 integer_lookup (IntegerL  (None, 1)        0        ['input_1[0][0]']          
 ookup)                                                                         
                                                                                
 embedding (Embedding)    (None, 1, 32)     5124201  ['integer_lookup[0][0]']   
                                            6                                   
                                                                                
 reshape (Reshape)        (None, 32)        0        ['embedding[0][0]']        
                                                                                
 input_2 (InputLayer)     [(None, 300)]     0        []                         
                                                                                
 dense (Dense)            (None, 64)        2112     ['reshape[0][0]']          
                                                                                
 dense_3 (Dense)          (None, 256)       77056    ['input_2[0][0]']          
                                                                                
 dropout (Dropout)        (None, 64)        0        ['dense[0][0]']            
                                                                                
 dropout_3 (Dropout)      (None, 256)       0        ['dense_3[0][0]']          
                                                                                
 dense_1 (Dense)          (None, 64)        4160     ['dropout[0][0]']          
                                                                                
 dense_4 (Dense)          (None, 256)       65792    ['dropout_3[0][0]']        
                                                                                
 dropout_1 (Dropout)      (None, 64)        0        ['dense_1[0][0]']          
                                                                                
 dropout_4 (Dropout)      (None, 256)       0        ['dense_4[0][0]']          
                                                                                
 dense_2 (Dense)          (None, 64)        4160     ['dropout_1[0][0]']        
                                                                                
 dense_5 (Dense)          (None, 256)       65792    ['dropout_4[0][0]']        
                                                                                
 dropout_2 (Dropout)      (None, 64)        0        ['dense_2[0][0]']          
                                                                                
 dropout_5 (Dropout)      (None, 256)       0        ['dense_5[0][0]']          
                                                                                
 concatenate (Concatenate  (None, 320)      0        ['dropout_2[0][0]',        
 )                                                    'dropout_5[0][0]']        
                                                                                
 dense_6 (Dense)          (None, 512)       164352   ['concatenate[0][0]']      
                                                                                
 dropout_6 (Dropout)      (None, 512)       0        ['dense_6[0][0]']          
                                                                                
 dense_7 (Dense)          (None, 128)       65664    ['dropout_6[0][0]']        
                                                                                
 dropout_7 (Dropout)      (None, 128)       0        ['dense_7[0][0]']          
                                                                                
 dense_8 (Dense)          (None, 32)        4128     ['dropout_7[0][0]']        
                                                                                
 dropout_8 (Dropout)      (None, 32)        0        ['dense_8[0][0]']          
                                                                                
 dense_9 (Dense)          (None, 1)         33       ['dropout_8[0][0]']        
                                                                                
================================================================================
Total params: 51,695,265
Trainable params: 51,695,265
Non-trainable params: 0
________________________________________________________________________________
